models/CNN_model.pth (torch, 769288 bytes, 34 tensors)

conv_layers.0.weight f4 [16, 1, 3, 3]
000000 1e bc 9c be 14 70 79 3e fc a7 7a 3e 3f ee d7 3d
       -0.30612272 0.2435916 0.24478143 0.10543489
000010 e7 36 2f 3e d1 82 dc bd e7 be 9c bd aa fe ab bc
       0.17110787 -0.10767139 -0.07653599 -0.020995457
000020 8b c0 6a 3e 08 ed 18 be e7 94 65 3e ea eb 24 3e
       0.22925012 -0.1493417 0.22420083 0.16105619
000030 9d a8 9f be eb 44 49 3e bf 13 d8 bd 7b 81 7a 3e
       -0.3118333 0.19655196 -0.10550641 0.24463455
000040 5b 66 9a 3d af 59 59 3e 2e 09 b7 3d 4b 62 ab bd
       0.07539054 0.21225618 0.08937298 -0.08368357
000050 ee 7b 91 3e 00 25 61 bd ce 0b 9b bd 93 d3 cb bd
       0.28414863 -0.054966927 -0.07570611 -0.09952464
000060 93 62 9a 3e f1 42 ad bd 89 68 93 3e 2c 3c 31 be
       0.3015333 -0.08460034 0.28790691 -0.1730811
000070 53 74 e2 bd e6 a9 a5 bd cd eb 19 3d 4f de 9d bc
       -0.11057343 -0.08089046 0.037578393 -0.019271044
000080 79 b1 78 be f1 90 ed 3c 3e 98 45 be 1b 19 3f 3e
       -0.2428645 0.028999778 -0.19296357 0.1866192
000090 d9 e9 16 be 31 48 21 bd 80 ee 7c be 80 60 14 be
       -0.14737643 -0.039375488 -0.24700356 -0.14489937
0000a0 4e 53 9c be 26 35 34 3d b8 68 27 bd d7 30 12 3e
       -0.30532306 0.043996 -0.040871352 0.14276443
0000b0 51 df 8e 3d b0 e9 f4 3d 63 3f c3 3d a9 b1 1f be
       0.06976188 0.11958635 0.095335744 -0.15595116
0000c0 41 f4 82 be 58 c6 0c 3e 00 9d d0 3d f1 7b 7e be
       -0.25576976 0.13747537 0.101861954 -0.24851967
0000d0 d5 71 7a 3e 7f 3d bb 3c d7 7c 1a be a5 ef d1 bd
       0.24457486 0.022856472 -0.15086685 -0.10250787
0000e0 fb 4e 35 be 84 cc c0 3d 68 bc 48 be 4d c3 cd bd
       -0.1770591 0.09414008 -0.19603121 -0.10047016
0000f0 7e ad ab be 9d 90 9c 3e 1e c7 31 bd 7f 31 7f be
       -0.33530802 0.3057908 -0.043402784 -0.24921225
000100 e7 05 13 3d bd 28 a9 bd ac 53 5e 3c 2a aa 91 be
       0.0358943 -0.08259723 0.013569754 -0.28450137
000110 ab 47 cd bd cd cb 51 be 71 36 8a 3e 4e 5c 8e 3d
       -0.10023435 -0.204879 0.2699466 0.069511995
000120 8a b4 eb 3d 5f 46 09 3d fe 29 00 be 45 b5 11 be
       0.115090445 0.033514377 -0.12516019 -0.14229305
000130 38 8b 82 3b 40 5c 40 3e 1e 41 09 bd 8e 14 04 be
       0.0039838813 0.1878519 -0.033509366 -0.12898466
000140 05 6d eb bd d6 b8 c0 3d 6b 51 1f bd 02 da cf bc
       -0.11495403 0.09410255 -0.038896006 -0.025372509
000150 e1 1b 5c 3e 57 d5 4b be 5c 5b 30 be b6 d7 43 3e
       0.2149501 -0.19905601 -0.17222351 0.19125256
000160 f7 80 89 be ec c5 fb 3a e5 0d c7 bc f3 41 f3 bd
       -0.26856205 0.0019208766 -0.024298618 -0.11877813
000170 13 8a 87 3d d1 44 ae bd 26 84 42 3b 29 55 5a 3b
       0.066181324 -0.085092194 0.0029680817 0.003331492
000180 e9 4c 88 3d 67 ff 7f be 87 cf 1c 3d 11 bb 9f 3e
       0.066552944 -0.24999772 0.03828385 0.31197408
000190 bd 2c 05 3e c0 88 81 be 9f 1a eb 3d cb bc 96 3d
       0.13005348 -0.25299644 0.11479687 0.07360228
0001a0 d8 00 14 3e ff dc 27 3e e4 da 36 be 4d 33 4d 3d
       0.14453447 0.16392897 -0.17856938 0.050097752
0001b0 68 f6 8e 3e d5 83 b0 be 34 07 d2 3d 55 73 28 3e
       0.27922368 -0.3447558 0.1025528 0.16450246
0001c0 94 86 74 be db 5a 88 be ca 8f e7 bd 6d 1d 63 3d
       -0.23879462 -0.26631817 -0.113067225 0.055447984
0001d0 ae 2c ff bd ca 42 48 3e 94 0d 8b be de 55 4f 3d
       -0.12459694 0.19556728 -0.27158797 0.050619
0001e0 d4 07 f5 3d 27 32 a3 3e 9d b7 f6 bd 91 03 3b be
       0.11964384 0.318742 -0.1204674 -0.18263079
0001f0 1b 7e 1f 3e fe 72 ca 3c f4 95 65 3e ec ec 1c 3e
       0.15575449 0.024713036 0.22420484 0.15324754
000200 14 1c 68 3e aa 94 2c 3e 1f 63 22 be bf bb 58 be
       0.22666961 0.16853586 -0.15858124 -0.2116537
000210 1a f0 5c 3e 93 1e 57 3e 4b 7b 2b bd 08 ee a2 3e
       0.21575966 0.21007757 -0.04186563 0.31822228
000220 51 4f bb 3d 35 85 00 3e c1 c5 06 be 91 7c 4e be
       0.09145988 0.12550814 -0.13161375 -0.20164706
000230 a7 0b 43 be e2 e5 57 3e 47 99 89 3e 4a a7 f6 3c
       -0.19047414 0.21083787 0.26874754 0.030109067

conv_layers.0.bias f4 [16]
000000 ce fa 84 be b8 e3 0c 3e f6 67 8e 3e 2d 06 0d 3e
       -0.259726 0.13758743 0.2781369 0.13771887
000010 c2 5e 2f be 3d 07 2d 3c 86 46 71 3e 1f 65 85 be
       -0.17125991 0.010560808 0.23562059 -0.26053712
000020 92 0f e5 3d 82 aa 27 3e 85 32 aa bd 71 f7 1a be
       0.111846104 0.16373637 -0.08310417 -0.15133454
000030 95 3a 8f 3e b0 7f 29 bd f2 c7 57 3e 69 fd 5c 3e
       0.27974382 -0.041381538 0.21072367 0.21581043

conv_layers.1.weight f4 [16]
000000 7f 2f 83 3f 23 94 77 3f 44 f8 75 3f d5 e6 7a 3f
       1.024887 0.96710414 0.9608195 0.9800847
000010 ee d8 77 3f 8d cf 85 3f ad 87 7c 3f 97 cb 7c 3f
       0.96815383 1.0453964 0.98644525 0.98748153
000020 61 5a 7d 3f 1e 65 83 3f 29 4e 7a 3f 05 e9 81 3f
       0.9896603 1.0265234 0.9777551 1.0149237
000030 dd 59 7c 3f 9a d4 7f 3f 2c d1 77 3f 6f ca 76 3f
       0.9857462 0.9993378 0.96803546 0.9640264

conv_layers.1.bias f4 [16]
000000 b2 4f 46 bc ad c1 52 bd 26 c4 3f bd 66 c0 77 bc
       -0.012103962 -0.051454235 -0.04681792 -0.015121555
000010 bd 98 b7 bc b1 3d a2 3c 1b b0 9c ba c8 a6 15 bd
       -0.022411698 0.019804807 -0.0011954339 -0.036536008
000020 08 4a 27 bd 41 7c 07 3d 20 2a 01 bd 34 5d eb bc
       -0.040842086 0.033077482 -0.031534314 -0.028730966
000030 da da 11 3d fc 68 43 bc 63 e6 37 bd fc e3 44 bd
       0.035609104 -0.011926886 -0.04489745 -0.048068985

conv_layers.1.running_mean f4 [16]
000000 31 77 33 bd 66 c5 c3 3e e8 d1 07 3f a4 b2 ec bd
       -0.04381484 0.3823654 0.53054667 -0.115575105
000010 20 b2 f0 be 38 d3 1b 3d e8 bc a3 bd 4d 4f ff be
       -0.470109 0.03804323 -0.079950154 -0.4986519
000020 a6 4e a7 3c 07 72 96 3d ec da 5e be 78 8b c8 3d
       0.020423245 0.07345968 -0.217632 0.097922266
000030 db 04 80 3d 79 27 b5 3d 62 f7 0f 3f 2a cf e5 3e
       0.06250926 0.088454194 0.5623685 0.44884616

conv_layers.1.running_var f4 [16]
000000 a0 d2 71 3c 75 e8 ba 3c 4c cb ad 3c 60 ee 53 3c
       0.01475969 0.022815922 0.021215104 0.012935251
000010 e9 9d be 3c 84 56 96 3b 56 cd 81 3c 1d f7 95 3c
       0.023268657 0.00458795 0.015844982 0.01830631
000020 1c ed 01 3c 3b 1f a8 3b 6c f5 54 3b 5c 79 63 3c
       0.007930066 0.005130676 0.0032494916 0.013883915
000030 5a 03 45 3c 39 4e 16 3c c7 c3 09 3d e3 ef 43 3d
       0.012024725 0.009173923 0.033633973 0.047836196

conv_layers.5.weight f4 [64, 16, 3, 3]
000000 8f fc 22 bd f7 6a 05 bc 15 ed 8b bc 9e e6 e7 bc
       -0.03979164 -0.008143178 -0.017080823 -0.028308209
000010 7b aa 60 bd 65 be 2e bd 8e 48 9a 3d 49 77 18 3d
       -0.054850083 -0.042662043 0.0753337 0.037223134
000020 2d 3d c9 bc fb e5 82 bd d7 76 06 bd a6 60 ce 3c
       -0.024565304 -0.063915215 -0.03282818 0.02519257
000030 71 3c a3 bd 0a 7f 2e 3b cb fd c0 3c d5 78 13 bc
       -0.07970513 0.0026626014 0.023558518 -0.009000977
000040 de b0 f5 3b f6 0b 76 bd f3 94 72 bd 46 90 89 3d
       0.007497891 -0.06007 -0.05922408 0.06716971
000050 79 06 9d bb 73 36 0d bd fd ee f4 3c 5c 90 1f 3c
       -0.0047920314 -0.034475755 0.029899115 0.009739008
000060 bb 85 60 bd 77 2e 90 3d e3 d4 67 bb 79 13 47 3d
       -0.054815035 0.070401125 -0.0035374693 0.048602555
000070 4e 22 94 3d d7 5d aa 3b 8f df 97 3d c7 df 35 bd
       0.072331056 0.005199175 0.07415687 -0.044402864
000080 fb 04 ca 3c f6 92 82 bc d4 dd be bc 12 9e b6 3b
       0.024660578 -0.015939217 -0.023299135 0.0055730427
000090 98 c0 82 3d a2 89 7b bd 2f eb 01 3c 9d bc 05 3d
       0.063843906 -0.061410554 0.007929607 0.03265058
0000a0 4c 53 10 3d 1a a4 df ba e0 d9 3e 3d 62 2e e8 3c
       0.035235688 -0.0017062456 0.0465945 0.02834243
0000b0 dd 85 05 bd 44 cd 2e 3d f4 b4 21 3d 62 10 d3 bc
       -0.032598365 0.042676225 0.03947921 -0.025764648
0000c0 33 70 26 bd 6f 4c ca 3d 49 8e 97 3d be 74 2f bd
       -0.040634345 0.0987786 0.074001856 -0.042835943
0000d0 87 57 f3 bc 98 c5 3c bd b1 2a 86 bd 25 54 db 3c
       -0.029704822 -0.046086878 -0.065511115 0.026773522
0000e0 e0 4c 7c 3b 65 9d 6e 3d 61 51 8b bd f0 0d ca 3c
       0.003849797 0.058255572 -0.06802631 0.024664849
0000f0 43 21 af bd bb 9e 28 3d 51 8f 29 bc 9b 5e cd bc
       -0.08551266 0.041167002 -0.010349111 -0.025069525
000100 76 c8 89 3d 1a 64 6e bb 1b ba 75 3d 0f e7 59 3d
       0.06727688 -0.0036375583 0.059991937 0.05319887
000110 be ae 61 3d 56 89 1b bb 27 80 e6 bc a5 6e 48 3c
       0.055098288 -0.0023732982 -0.02813728 0.012233411
000120 ee dc b5 3d d8 18 76 39 4f 74 0f 3d fd 89 89 3d
       0.088800296 0.00023469643 0.03502303 0.06715772
000130 5b ef 9d 3d df f0 b2 3d a6 6d 0c bd 6f 0a 11 3d
       0.07711669 0.08737349 -0.034284256 0.03541034
000140 24 a6 5f 3c 05 74 53 3d 0d 74 cd bc 5a ec 70 bd
       0.013650451 0.051624317 -0.025079751 -0.058819152
000150 1a d6 f6 3c 34 85 2a 3c 38 5a a9 3c f7 28 9f 3d
       0.030131388 0.010407735 0.020672902 0.07771485
000160 6d 76 a7 3d ad e3 84 3c 8b 60 97 ba 9d 95 38 3d
       0.08176885 0.016221846 -0.0011549158 0.045064557
000170 4a 70 96 3d 54 58 1d bd d6 29 94 3d 8b f4 23 ba
       0.07345636 -0.038414314 0.07234542 -0.0006254396
000180 d4 cb e9 bc 52 38 f7 bc 3c 1f 0a 3d f5 58 bb 3c
       -0.028539576 -0.030178223 0.033721194 0.022869566
000190 d8 45 60 3c d4 e8 ec bb be ea ed 3c a5 97 96 3d
       0.013688527 -0.0072299037 0.029042598 0.07353143
0001a0 d6 21 81 bd 3a 74 53 3c fb be 18 3d 7b 73 0c 3d
       -0.06305282 0.012906129 0.03729151 0.03428982
0001b0 a7 c9 85 bd 27 5e 98 3d 32 81 85 bd b5 e6 9a 3d
       -0.06532603 0.07439833 -0.06518783 0.07563535
0001c0 39 e6 86 bd 3e 6b 1b 3b b5 9e 8f bd 98 3b 13 3d
       -0.0658688 0.0023715044 -0.07012693 0.035945505
0001d0 c3 3c df 3c 97 86 53 3d d7 f9 c6 bc b0 4a a5 3c
       0.027250653 0.051642027 -0.024289055 0.020177215
0001e0 1a 8f a8 3c 67 28 2f bd 24 af 4e 3d 7d e6 f4 3c
       0.020576049 -0.04276314 0.050459996 0.029895062
0001f0 80 6b aa 3c 20 f6 52 3d 6a 05 48 3c 5d 43 a7 3c
       0.020803213 0.051504254 0.012208322 0.020417864
000200 9d f7 e5 bc c9 90 69 bc 63 cb 3d 3d 44 0c 96 bc
       -0.028072173 -0.014255711 0.046336543 -0.018316396
000210 4c 5b b2 bd e5 6b 88 bc 61 1e d4 3c b9 48 c8 3c
       -0.0870882 -0.01665301 0.025893392 0.02444874
000220 e3 c3 d6 3c 0d bb 79 3c 8c 4b d2 bc 4a a6 4d bd
       0.026216453 0.01524235 -0.02567079 -0.050207414
000230 06 d5 fe bc d4 a2 0f bd 17 70 92 bd 95 19 8e 3d
       -0.031107437 -0.035067394 -0.07150286 0.06938473
000240 66 5f 01 3d 08 11 41 bc dc c5 99 3d f5 5c 58 bd
       0.03158512 -0.011783846 0.07508442 -0.052823026
000250 1d 8b 3a bd 76 0b 9f bd b6 8e 0a 3d 6a c1 2f bc
       -0.045542825 -0.07765858 0.033827506 -0.010727266
000260 48 ac ee bc 26 59 7b bd 23 44 63 bd 48 b2 24 bd
       -0.029134884 -0.061364315 -0.055484902 -0.040209085
000270 49 d2 36 bd cf b6 52 3c 69 0f 92 bd 0d 6b 8b 3d
       -0.044634137 0.012860968 -0.071318455 0.06807528
000280 bf 3d 6a 3d a3 bf c8 3c cc 29 2c 3a 9d b3 75 bd
       0.057187792 0.024505442 0.00065675075 -0.059985746
000290 ab 32 09 bd cc 09 11 3d 7d 04 88 3b 19 22 66 bd
       -0.033495586 0.035409734 0.0041509257 -0.05618486
0002a0 6d dc ff 3b b5 c3 ae bd 1f 9e 41 3d 1f 8c 0f bd
       0.007808259 -0.08533422 0.047269937 -0.03504574
0002b0 8f 3e 43 3d 7d 1b 33 3d 23 e2 c8 3a 87 60 a3 bd
       0.047667082 0.043727387 0.0015326183 -0.079773955
0002c0 9c 11 73 bd 30 e0 94 bd a3 42 02 ba c2 b0 6f 3b
       -0.059342965 -0.07269323 -0.0004969036 0.0036573862
0002d0 d0 87 40 3d 68 d3 db 3c 4f d4 9c bd c5 71 8d 3d
       0.04700452 0.026834205 -0.07657682 0.069064654
0002e0 db 65 3f 3d 6c 87 98 3d 3f 91 96 3c 8e 12 9a bd
       0.046727996 0.07447705 0.018379806 -0.0752307
0002f0 7c f8 ff bb 5c 91 30 bd f9 47 a3 bd 9f 47 39 bd
       -0.007811604 -0.043107376 -0.07972712 -0.04523432
000300 af 3b f9 bc 1a 34 b1 3c 4f d0 23 3c 53 58 3e 3d
       -0.030423967 0.02163129 0.009998395 0.04647095
000310 b5 50 0f 3c d7 e6 a1 3d 91 c4 a1 3d 73 f6 8f 3d
       0.008747269 0.07905357 0.0789882 0.07029428
000320 ca 66 65 3d a9 9f 05 bd 2b a7 2e bd 9a 4f 0f bd
       0.05600623 -0.032622967 -0.042639893 -0.034988023
000330 e1 bc 15 bd ad 2e 16 bd 91 25 7b bd 15 d3 9b bc
       -0.036557082 -0.036665607 -0.061315123 -0.01902155
000340 4c 4d db 3c 69 4c 39 3d 8d b3 a8 3d a1 d4 82 bd
       0.026770256 0.045238886 0.082373716 -0.06388212
000350 40 e9 a5 3d c2 5f 43 bd d0 dc ab bd ef 4a db bc
       0.081011295 -0.047698744 -0.08391726 -0.02676913
000360 a7 d7 91 3d 8a 13 b6 3c 7c 08 9e 3c ff a6 6b 3d
       0.071212105 0.022226114 0.019291155 0.057532307
000370 63 21 8f bd 99 e0 c9 3b 88 30 12 3d 36 94 07 3c
       -0.0698879 0.0061608073 0.035690814 0.008275082
000380 ad 8d e1 bc af a1 5d 3d 5b f5 7e 3d 84 06 aa bd
       -0.027533377 0.05410927 0.062245708 -0.08302024
000390 6c 26 d0 bc 5e 32 1c 3d 6a 67 4d bd 54 26 8a 3d
       -0.025408946 0.03813397 -0.05014745 0.06745592
0003a0 e9 0c 7e 3c f0 7d 63 3d 85 ed a5 ba 9c 5a 57 bd
       0.015506008 0.055540025 -0.0012659287 -0.052576646
0003b0 f2 81 9d 3c 44 a7 74 3d 01 52 0a 3d 91 dc e1 3c
       0.019227002 0.05972983 0.03376961 0.027570995
0003c0 61 4c ad bb 59 44 98 bd 27 82 4f 3d bc f9 44 bd
       -0.005288646 -0.07434911 0.050661232 -0.048089728
0003d0 30 d8 87 bd 15 4b 65 bd 19 5f 14 3d 53 95 25 bd
       -0.06633031 -0.055979807 0.036223505 -0.04042561
0003e0 1a 71 57 bd 3e bb 51 bd 5e a0 41 3d 23 0b 9d 3c
       -0.052598096 -0.05120396 0.04727208 0.01917035
0003f0 e5 91 f7 bc 5d f7 0e bb c4 2b 91 3d 46 32 4a 3d
       -0.030220935 -0.002181492 0.07088426 0.04936435

conv_layers.5.bias f4 [64]
000000 4d 07 75 bd 79 a5 26 3c fb 2b 0d bc 67 11 2e bd
       -0.059821416 0.010171288 -0.008616443 -0.042497065
000010 8c 70 42 bd 49 02 50 bd 97 61 e0 bc f9 fa 1a 3d
       -0.047470614 -0.05078343 -0.027390284 0.037837002
000020 65 c9 15 bd d9 26 11 3d 2d 92 f8 3c fb 32 93 bd
       -0.036569018 0.03543744 0.03034314 -0.07187458
000030 2b a9 6b bd 49 87 4b 3d 79 71 59 bd 20 08 67 3d
       -0.057534378 0.049689565 -0.05308673 0.056404233
000040 05 3f fa 3a 98 9e da bc a6 d6 69 3d f0 82 85 3d
       0.0019092268 -0.026686952 0.05708947 0.06519115
000050 9b 72 4c bd c1 6f 31 bd 21 f7 87 bd 31 c8 43 3c
       -0.049913984 -0.043319467 -0.06638933 0.011949585
000060 7d 2b cc bc e2 cb 71 3c 55 cd a1 bd 7e 03 a8 bc
       -0.02492308 0.014758082 -0.07900492 -0.020509478
000070 d6 a9 2d bd 88 df 04 3c 1f b2 95 bd b9 fc 66 3c
       -0.042398296 0.008109935 -0.073093645 0.01409834
000080 dd d4 07 3d a2 2a 78 3c d6 41 42 3d 73 99 90 bd
       0.033161987 0.015146883 0.047426067 -0.07060518
000090 7a b1 15 3d cc ae 87 3d 31 2b 56 3d bc 4c 98 3d
       0.036546208 0.06625137 0.052287284 0.07436511
0000a0 7a 4b d8 bc 56 2f 0d 3c 96 8d 29 3d a9 07 9b bd
       -0.026403178 0.008617243 0.041394792 -0.075698204
0000b0 ab 17 32 bd 79 be 9d 3c aa b5 49 3d 21 87 44 bd
       -0.043479603 0.019255864 0.049245514 -0.04798043
0000c0 bb 71 fb 3c 61 fa a3 bd 9d 67 82 bc 2c dc 50 3d
       0.03069388 -0.0800674 -0.015918547 0.050991222
0000d0 88 2a 93 3d ea 1f a8 3d 6e 62 f0 bb 3c 7b 01 bd
       0.071858466 0.08209212 -0.0073359525 -0.031611666
0000e0 3c 63 11 3d 9e ff a7 3d 70 25 91 3d 84 be 0c bd
       0.035495028 0.08203052 0.07087219 -0.034361377
0000f0 4f 19 68 bb ac b2 85 3d b2 9e a7 bd 93 27 91 3a
       -0.0035415476 0.065282196 -0.081845656 0.0011074416

conv_layers.6.weight f4 [64]
000000 cf e3 7d 3f ee 11 7f 3f 28 02 7b 3f 92 10 81 3f
       0.99175733 0.99636734 0.98050165 1.0083182
000010 d4 7b 7e 3f 60 1f 7e 3f f9 31 7d 3f 91 ef 7b 3f
       0.99407697 0.99266624 0.9890438 0.98412424
000020 cc 04 7c 3f a0 ea 81 3f 1e f7 7c 3f 3e b0 80 3f
       0.9844482 1.0149727 0.9881457 1.0053785
000030 c0 09 7d 3f 2c 0f 80 3f 7e b9 7e 3f 27 25 81 3f
       0.98843 1.000463 0.9950179 1.0089463
000040 82 eb 7b 3f 51 aa 7c 3f fe 36 7e 3f f1 2f 7c 3f
       0.9840623 0.9869738 0.9930266 0.9851065
000050 e9 f4 80 3f 60 22 7e 3f 70 0d 81 3f 91 b1 7f 3f
       1.0074741 0.992712 1.0082226 0.9988032
000060 90 8c 7b 3f b1 9e 7c 3f f9 0b 7d 3f 2d de 80 3f
       0.98261356 0.98679644 0.98846394 1.0067803
000070 2a 0e 82 3f 18 7e 7d 3f c4 e1 81 3f 01 46 7d 3f
       1.0160573 0.9902053 1.0147023 0.9893494
000080 67 ef 7d 3f b7 5a 80 3f 0d 5c 7c 3f f0 e4 7f 3f
       0.99193424 1.0027684 0.9857796 0.99958706
000090 9f 67 7e 3f 56 43 84 3f 0e ad 7e 3f d4 79 83 3f
       0.99376863 1.0333049 0.9948281 1.0271554
0000a0 b4 19 84 3f 44 84 7d 3f 0e 9d 80 3f da 89 7f 3f
       1.0320344 0.99029946 1.0047929 0.9981972
0000b0 94 ca 80 3f d8 c8 7e 3f e5 53 80 3f ad f7 7a 3f
       1.0061822 0.99525213 1.0025603 0.98034173
0000c0 a2 c9 7b 3f 97 a3 81 3f 05 6a 7f 3f ea dd 7d 3f
       0.9835454 1.0128049 0.9977115 0.9916674
0000d0 b4 c3 7b 3f fc 40 80 3f df dc 7e 3f 12 68 80 3f
       0.98345494 1.0019832 0.9955577 1.003176
0000e0 6d ac 80 3f 64 62 7e 3f 1d f3 7f 3f c5 e5 7c 3f
       1.005262 0.9936888 0.99980336 0.987881
0000f0 5a 9d 7e 3f c4 a4 7f 3f be 23 7e 3f 0f fc 79 3f
       0.9945885 0.9986079 0.9927329 0.97650236

conv_layers.6.bias f4 [64]
000000 99 3c 33 bc 4b 71 e4 bb 4e 0d 87 bc a3 0d 78 bb
       -0.010939741 -0.0069715134 -0.016485836 -0.0037849925
000010 13 6f b8 3a c0 2b 87 bc 85 98 e2 bb 9b ae 68 bc
       0.0014071189 -0.016500354 -0.0069151544 -0.014201785
000020 e6 f1 0c bc c6 17 62 3b 57 3c 35 bc 73 73 f9 bb
       -0.008602595 0.0034499033 -0.011061749 -0.0076126396
000030 a3 fd a3 bb 6e 8e 52 bc 80 d0 19 bc 16 fb 45 bc
       -0.005004601 -0.012851341 -0.009388089 -0.012083789
000040 80 24 43 bc 2f d5 55 bc b5 c1 2b bc 96 a0 5b bc
       -0.011910558 -0.013051315 -0.010483195 -0.013404986
000050 84 9d 97 bb d3 86 76 bc ee d0 23 3a ce af e4 bc
       -0.0046269316 -0.015046793 0.00062490895 -0.027915861
000060 df b3 76 bc ef 25 34 bc 64 6d 0c bc a0 73 a4 bc
       -0.015057533 -0.010995372 -0.008571003 -0.020074666
000070 7d 4d be 3b 4f 17 0f bc 5a 29 e4 bb 26 72 2b bc
       0.005807577 -0.008733585 -0.0069629373 -0.010464227
000080 84 5c 40 bb 7f a5 c1 bb 08 b8 a6 bc 2d 19 14 bb
       -0.0029352019 -0.0059096212 -0.020351425 -0.0022598014
000090 be 87 cd bb 62 dc fe ba a8 f6 2c bc ee 80 2a bc
       -0.0062722852 -0.0019444341 -0.010556854 -0.010406716
0000a0 d1 34 47 bc 9a 6a d3 3a 48 ad ed bb 97 aa 4e bb
       -0.0121585885 0.0016129792 -0.0072533228 -0.0031534785
0000b0 10 44 36 3b 2b 87 21 bc 2a 1f 82 bc 53 ac 9b bc
       0.0027811565 -0.009858887 -0.015884 -0.019003069
0000c0 dc ac 88 bc d8 ca 5b bb c3 0d 80 3b 1e e8 1b bc
       -0.016683988 -0.0033537652 0.0039078905 -0.00951579
0000d0 39 97 99 bc 39 98 2a bc a5 23 8a bb 86 a6 92 bc
       -0.018748866 -0.010412269 -0.004215675 -0.01790167
0000e0 8f 95 ec 3a 32 5e 54 bc c4 23 95 bb c3 71 1d bc
       0.0018049943 -0.012961911 -0.0045513827 -0.009609642
0000f0 cd f7 9a bc f1 de 03 bb 90 06 58 bc 26 f6 81 bc
       -0.018916989 -0.0020121897 -0.013185158 -0.015864443

conv_layers.6.running_mean f4 [64]
000000 56 64 0a 3f c9 10 a0 be c8 6c 89 3e 20 00 2d be
       0.5405935 -0.31262806 0.26840806 -0.16894579
000010 8a 3c d3 be e9 4b 38 bf a8 bd 1f 3f a7 fd a1 be
       -0.41257125 -0.7199083 0.6239877 -0.31638834
000020 89 b9 40 be 24 89 33 be b9 c6 a5 bd e1 5b e2 3c
       -0.18820776 -0.17532784 -0.08094544 0.027631702
000030 35 c6 ee be 29 d6 14 be e7 fe 1a be c0 da 39 3e
       -0.46635595 -0.1453482 -0.151363 0.18149853
000040 24 59 1f 3e 5e c2 f6 3e cf 1d d2 bd c3 b4 e9 3e
       0.15561348 0.48195165 -0.10259592 0.45645723
000050 c6 14 20 be d4 9e 02 3f 90 08 cb bd 16 e3 31 3f
       -0.15632924 0.510236 -0.099137425 0.6948713
000060 0b 34 05 bf 30 4a e4 bd 70 dd 50 bd ca 8e 26 bf
       -0.52032536 -0.11146963 -0.05099243 -0.6506163
000070 a4 ca 49 be 2f a1 7b be 2a ec 70 be 4d 93 c3 bd
       -0.19706208 -0.24573205 -0.2352759 -0.0954958
000080 3d e4 33 3f f8 85 5b be 83 38 d4 3e 05 c5 92 bd
       0.7027014 -0.21437824 0.41449365 -0.07166485
000090 b3 b9 01 3e 13 26 33 bc a3 dc ac be b5 fd ab bd
       0.12668495 -0.010934371 -0.33762082 -0.08398
0000a0 90 b7 39 be 08 f8 3f 3c a3 93 32 3e 13 dc 3b be
       -0.1813643 0.01171685 0.17439131 -0.1834567
0000b0 13 23 be be 8b 24 c3 bd 12 c3 0a bf d9 91 29 be
       -0.37136135 -0.095284544 -0.54203904 -0.16559543
0000c0 e3 b4 4b bf 84 31 f7 bd 38 77 fe bd d3 9d 8f be
       -0.79572886 -0.12069991 -0.12425083 -0.28050098
0000d0 2e f7 da 3e 87 34 97 be f3 1a 09 be c9 af 3a be
       0.42766708 -0.29532263 -0.13389187 -0.18231119
0000e0 12 79 34 bc c9 76 c0 bd cb 74 37 3f c0 3b 1a 3e
       -0.011015194 -0.093976565 0.71662587 0.15061855
0000f0 4e 69 2b bf 4a 54 fd 3d 0a bc c0 be 3c d9 ba be
       -0.6695756 0.123695925 -0.37643462 -0.36493862

conv_layers.6.running_var f4 [64]
000000 08 29 cb 3e 5e 52 b9 3e b7 b1 80 3e 9f 0a 73 3e
       0.39679742 0.36195654 0.25135586 0.2373452
000010 18 0a 9d 3e 8d 42 ca 3e b3 fa bd 3e 29 70 a9 3e
       0.30671763 0.395039 0.3710533 0.33093384
000020 f8 b9 80 3e ff 0c 4e 3e f4 91 a2 3e 0a bf 86 3e
       0.25141883 0.20122145 0.31751978 0.26317626
000030 cd f7 82 3e 6c c8 8f 3e 32 54 c6 3e 4f e1 86 3e
       0.25579682 0.28082597 0.3873611 0.26343772
000040 78 a3 91 3e df 84 7a 3e b3 0b 66 3e b3 7e 98 3e
       0.2844503 0.24464749 0.224654 0.29784164
000050 3f ff 57 3e 3a 03 87 3e eb 09 60 3e 95 10 d5 3e
       0.21093462 0.2636965 0.21878783 0.41614214
000060 5c 1f ad 3e 64 11 69 3e 49 52 79 3e 83 68 f9 3e
       0.33812988 0.2276054 0.24347796 0.4871255
000070 c3 9f 21 3e 21 32 4f 3e 6d 78 7b 3e 1e 71 ab 3e
       0.157836 0.20233966 0.24557658 0.3348474
000080 04 8f f6 3e f8 c5 4a 3e 4b 78 7f 3e 59 83 79 3e
       0.48155987 0.19802082 0.24948232 0.24366511
000090 1e 1b 97 3e 65 df 29 3e 9e 96 d3 3e 7e e4 1f 3e
       0.29512876 0.16589125 0.4132585 0.15614507
0000a0 5c f2 3f 3e e9 c1 9f 3e fe 76 4d 3e 98 40 97 3e
       0.18744797 0.3120263 0.20064923 0.2954147
0000b0 4c 0b ac 3e 22 96 84 3e 26 52 d2 3e 23 f8 a7 3e
       0.3360237 0.25895792 0.410783 0.328065
0000c0 ba 22 c6 3e 45 60 6b 3e 1b a9 c0 3e 39 eb 22 3f
       0.3869837 0.22985943 0.37629017 0.6364017
0000d0 ce 4e cd 3e e0 f7 a3 3e df 12 9a 3e b3 3d b3 3e
       0.40099186 0.3202505 0.30092523 0.3500801
0000e0 cd 76 af 3e a4 59 71 3e 6e 85 0e 3f 04 77 8b 3e
       0.34270325 0.23569351 0.5567235 0.2723924
0000f0 d9 ce d2 3e 41 c0 99 3e ac 18 88 3e ed d5 86 3e
       0.41173437 0.3002949 0.26581323 0.26335087

conv_layers.10.weight f4 [128, 64, 3, 3]
000000 03 d2 28 ba 1a 96 d0 bc e9 6e 0b 3c 47 de 4b bc
       -0.00064399856 -0.025462199 0.00851033 -0.012443132
000010 2c a8 dd bc 16 dd 90 3a c2 d3 37 3c c7 03 6e bc
       -0.02705773 0.0011052217 0.011219921 -0.014527268
000020 68 06 8e bc 64 ac c4 3b 24 bd 01 bd ff d7 7e bc
       -0.01733704 0.006001996 -0.03167452 -0.015554427
000030 0b ef da 39 44 bd 18 bd 16 18 ba bc 90 13 09 3d
       0.000417583 -0.037289873 -0.022716563 0.033465922
000040 02 5a 28 3d dd 02 0d 3d 75 8c 90 3c 12 4b 33 3a
       0.041101463 0.03442656 0.0176451 0.00068394945
000050 5a 89 03 bc 10 13 3e 3c 86 e9 5d bc 27 2d 5b bc
       -0.008028353 0.011601225 -0.013544446 -0.013377464
000060 60 46 47 bc 32 15 b2 3c 34 9b 0f ba d1 f2 99 3c
       -0.012162775 0.021738622 -0.0005478144 0.018792542
000070 12 da 15 ba 7c a6 c4 bc 12 a9 be ba 22 c9 39 3c
       -0.0005716394 -0.024005167 -0.0014546236 0.011339458
000080 60 72 26 bd 5f 58 e8 3c 8f dd 02 bd 4d 13 a0 3b
       -0.04063642 0.028362451 -0.031949576 0.0048851133
000090 a6 f1 33 bb 35 c8 95 3c ef 76 0c 3d 59 c3 20 bd
       -0.0027457266 0.018283943 0.03429311 -0.039248798
0000a0 f8 50 42 bd 5f c5 a2 3a 9d bb 7b 3b 6b 68 a5 3c
       -0.0474405 0.001241844 0.0038411387 0.020191392
0000b0 28 70 c0 3c 08 f2 ec ba 7f 4e df 3c 5e c6 b3 3c
       0.02349098 -0.0018077502 0.02725911 0.021945175
0000c0 72 47 ed 3b 1e 83 f3 3a 1f 3a d4 3c b4 98 13 bd
       0.007241183 0.0018578505 0.02590662 -0.0360343
0000d0 08 44 73 3c b9 65 04 bc 6c 19 b8 3c f0 f7 12 3d
       0.014847763 -0.008080893 0.02247306 0.035880983
0000e0 f6 06 82 bc e4 e9 a8 3c 22 6f 74 bc 93 5e 08 3d
       -0.01587246 0.02061934 -0.014919074 0.033293318
0000f0 ff 9b 15 bd 9c b2 1d bd d4 ec 04 3b fc 03 29 3c
       -0.036525723 -0.038500413 0.0020282762 0.010315891
000100 8d b4 ba 3c 73 f8 0b bd 93 2f 12 3d 88 44 d7 3a
       0.022791171 -0.034172487 0.0356899 0.0016423622
000110 9c b4 d1 bb 0d 56 94 3b 48 3c ad bc 11 a4 0d 3d
       -0.006399704 0.0045268596 -0.021146908 0.034580294
000120 33 67 84 3b ac f2 11 3d 1a fe 0c bd 8a 27 1b 3d
       0.0040406226 0.03563182 -0.034422018 0.037879504
000130 d9 16 01 bd 07 08 9b bc 9f 64 50 bb e2 66 ed bc
       -0.03151593 -0.018924726 -0.0031798256 -0.028979722
000140 54 9b b0 3c f1 0a 0a bd de ee b1 bc ca b1 c6 3c
       0.021558441 -0.03370184 -0.021720346 0.024254698
000150 71 df 39 bd 1b bf 05 bd 52 e3 d0 bc 69 dc a2 3c
       -0.045379106 -0.032652956 -0.02549902 0.01988049
000160 61 83 6b 3b 2f fa bd 3b 2b 68 00 bb 21 02 1f bd
       0.0035936462 0.0057976465 -0.001959334 -0.03882039
000170 6a 64 6b 3c ae 19 05 3d 36 00 ec 3c 7c c2 49 3c
       0.014367202 0.032495193 0.028808694 0.012314435
000180 da 0e 28 bd bf 79 28 bd f3 87 2e bd bd 07 03 3c
       -0.04102979 -0.04113173 -0.04261012 0.00799745
000190 b8 fe d8 3c 6c 48 95 3b 84 92 92 bc d1 9f 1e bc
       0.026488647 0.0045557525 -0.01789213 -0.009681658
0001a0 8a 21 44 bd aa c1 00 3d 5f fe 24 3d fe ab 50 3c
       -0.047883548 0.031434692 0.04028165 0.012736319
0001b0 fd 48 90 bc 30 80 56 bc e4 37 3f bc 33 b3 2b bc
       -0.017612929 -0.013092086 -0.01167104 -0.010479736
0001c0 9c 6c 06 3d 59 f3 bf bc f0 fd 94 3c ca 57 f7 bc
       0.03281842 -0.023431467 0.018187493 -0.030193228
0001d0 cd 35 f5 bb 9b c5 20 bd f4 cd 55 3c d4 69 9b bc
       -0.00748322 -0.03925095 0.013049591 -0.018971361
0001e0 66 b7 f9 3c de 90 d3 bc 79 b2 de bc aa ae 33 3b
       0.030482959 -0.025825914 -0.027184712 0.002741734
0001f0 85 8a 94 3b a2 15 96 3c ac fd 81 bc b9 85 f7 3b
       0.0045331144 0.018320862 -0.01586803 0.007553783
000200 ea e9 ae bc f1 35 42 ba d2 05 b9 bc b9 d8 13 3d
       -0.021351773 -0.00074085506 -0.022585783 0.036095355
000210 1f bf 86 3c 95 24 a5 bc 0a 4c 2e 3c e0 e5 f5 3c
       0.016448556 -0.020159045 0.010638246 0.03001684
000220 3b 83 46 3b 8e 9d 9e bc e4 74 2a bd 12 4d d1 bb
       0.0030290622 -0.019362237 -0.04161538 -0.0063873613
000230 20 32 03 bb cf d9 00 bc 32 02 21 bc 59 bf c1 bc
       -0.002001889 -0.00786443 -0.009827184 -0.023650812
000240 9a 14 de bc 14 4e 0b bd f3 3a 85 bc 19 1e 0b bd
       -0.027109433 -0.034010008 -0.01626346 -0.03396425
000250 88 a4 98 3b 61 80 06 3d 37 6c 1b bd 90 bf 54 bc
       0.0046582855 0.032837275 -0.037945 -0.012985125
000260 ee 5a db 3c 5b 9b b0 3c cf cd b9 bc de 67 00 3d
       0.026776757 0.021558454 -0.022681145 0.031349055
000270 c1 bc 11 3d b8 b6 0a 3d b3 51 e1 bc 6a 71 21 bc
       0.0355804 0.03386566 -0.027504778 -0.0098537
000280 3b c6 69 bc 5d b0 80 3c 23 3b 05 bd ac 16 f2 bc
       -0.014268453 0.015709097 -0.0325271 -0.029551826
000290 ca 68 13 3d a3 09 8b 3c 59 40 04 3c 8f f0 79 3c
       0.035988607 0.016972369 0.008071982 0.015255108
0002a0 8d e7 06 bd 62 e1 0e bd 66 a5 df bc 5d 6d 37 3b
       -0.032935668 -0.03488291 -0.027300548 0.002798877
0002b0 d9 67 09 3d d7 6c 3e bc a6 3c d1 3c d1 b4 f3 bc
       0.033546302 -0.011622629 0.025541615 -0.029749306
0002c0 43 5a ac ba 44 eb 2d bd 4e 85 7d 3b 33 a3 cd bc
       -0.0013149459 -0.042460695 0.0038684192 -0.025102234
0002d0 3c 69 83 3c 33 27 14 3d e2 df 83 3c 30 bd d3 bb
       0.01604139 0.036170196 0.016097967 -0.006461762
0002e0 5d 66 88 3b bd cc 4d bb 09 9f 15 bd 88 cd 33 bb
       0.0041625933 -0.003140255 -0.03652862 -0.0027435739
0002f0 6d 03 f9 bc 5b 5d 77 3b 77 68 97 bc 68 0d 7f 3c
       -0.030397141 0.0037744853 -0.01848243 0.015567161
000300 f4 c6 19 3d bb 01 ef 3c a5 68 15 bd 58 7e 1b 3d
       0.037543252 0.02917563 -0.03647675 0.037962288
000310 06 d8 b5 3c d1 4d 11 3b 9e 10 8f 3b 8a f7 41 bc
       0.022197735 0.0022171626 0.0043659946 -0.011838803
000320 bd d3 08 bc 49 6f 91 bc 80 d8 d0 3c 5f cf 8b bc
       -0.008351264 -0.01775326 0.02549386 -0.017066656
000330 86 85 47 3c 9c 4b e3 bc eb 13 34 bc 44 9e 19 3d
       0.012177831 -0.027746014 -0.010991077 0.03750445
000340 1b 63 c0 bc fa a4 a4 bc 8b 16 e9 bc df da b8 3c
       -0.023484757 -0.020098198 -0.028453132 0.022565303
000350 6e 53 fc 3b 43 0a 50 3c 1d 2c 90 3c 6d 79 0f 3d
       0.0077003753 0.012697759 0.01759916 0.03502791
000360 60 6f b7 bb 1c 16 11 bd 6b 49 03 bd 85 da c1 3c
       -0.0055979937 -0.035421476 -0.03205244 0.023663769
000370 a6 a8 f2 bc e4 2a 6f 3c 97 68 b0 3c bd f7 10 3d
       -0.029621433 0.014597628 0.021534247 0.03539251
000380 6d bc 8d bb 48 37 8d 3c ab d1 91 3b 89 54 04 3d
       -0.0043254406 0.017238274 0.004450043 0.03230718
000390 a2 57 a9 3c 72 09 d3 bc 7a 15 8e bc e9 46 19 3d
       0.02067167 -0.02576134 -0.017344225 0.03742114
0003a0 80 21 07 bd 82 d7 6d bc 2e 0b 34 bd 03 95 22 3c
       -0.032990932 -0.014516713 -0.043955974 0.0099232225
0003b0 a6 64 9e 3a 8d 89 ac 3c f7 2d b3 3c e8 d8 07 3d
       0.0012084439 0.021061683 0.021872504 0.033165842
0003c0 b6 ff 0e bd 23 cc 92 bc 2a 8d 91 3c 47 24 f8 bc
       -0.034911834 -0.017919606 0.017767508 -0.030290736
0003d0 5a 7d 0f bc 0e 23 a5 bc 21 64 99 3c 08 92 ec bc
       -0.0087579135 -0.020158317 0.018724503 -0.028878227
0003e0 40 c0 27 3d 28 de f9 bc 8b 63 07 3d c7 98 26 bb
       0.04095483 -0.03050144 0.033053916 -0.0025420652
0003f0 6e 41 c1 3c 91 f4 0c bd 5f 3c e6 bc 14 84 bc 3b
       0.02359077 -0.034412924 -0.028104959 0.0057530496

conv_layers.10.bias f4 [128]
000000 3e 1f b6 3b 8d 98 07 bd 6b cc 10 3d 65 5e 0d bd
       0.0055579236 -0.033104468 0.0353512 -0.03451385
000010 e4 47 22 3d df a8 4e 3b 82 b2 32 3c fa ec 17 3d
       0.03961934 0.003153376 0.010906817 0.037091233
000020 fc b3 00 3d 6d 1d 22 3d d3 d4 19 3d 3b ff a7 3c
       0.031421646 0.039578844 0.03755648 0.020507446
000030 74 fd 60 bc 2d 9a 25 3d 87 89 1a bc c9 32 2a bd
       -0.013732303 0.040430237 -0.009432203 -0.04155234
000040 63 25 ab 3c ba 0d 1e 3d eb 43 0a bd 8b 00 6c bc
       0.02089185 0.03858731 -0.033756178 -0.014404426
000050 98 3c b3 3c 2f 82 8f 3c 66 18 1d bd b2 7f 16 3d
       0.02187948 0.017518131 -0.038353346 0.036742873
000060 50 d6 4c 3c 7f 26 9f bc c9 db df bc 2c 32 02 3d
       0.012502268 -0.019427536 -0.027326481 0.03178613
000070 56 60 fb 3c 33 b7 24 bd c3 34 04 bd c2 13 27 bd
       0.030685585 -0.040213775 -0.03227688 -0.040790327
000080 d8 15 f9 3c 71 1c ec bc e8 1d 88 3b 03 67 38 bb
       0.030405924 -0.028822156 0.0041539557 -0.0028137572
000090 05 8d 23 3a b1 f6 32 bc d1 23 44 bb 7b 65 57 ba
       0.000623897 -0.010923074 -0.0029928575 -0.0008216721
0000a0 84 53 a3 bb 78 07 5a 3c 3b 2b c0 bc 26 41 90 bc
       -0.004984321 0.013307445 -0.023458114 -0.01760919
0000b0 ce 03 1d 3c d5 e6 0e 3d 9e ce 0c bd 64 44 28 bd
       0.009583427 0.034888107 -0.034376733 -0.041080847
0000c0 e7 da 47 3c 1e 3a 13 bd 9e d0 22 3d b9 13 25 3d
       0.0121981865 -0.035944097 0.039749734 0.040302012
0000d0 d8 a2 9a 3a 9a 53 86 3c 7c 18 3d 3c a9 dc 27 3d
       0.0011797799 0.016397286 0.011541482 0.040981922
0000e0 91 8a 99 3c 7c 38 a0 bc 08 77 ef 3c 50 da ad bc
       0.018742831 -0.019558184 0.029231563 -0.021222264
0000f0 23 e6 95 3c 08 36 8f bb 2c f9 24 bc 15 b3 57 3c
       0.018298214 -0.0043704547 -0.010069173 0.013165255
000100 23 6a 3b bc e1 73 aa bc 22 28 57 bc 9a 5b af bc
       -0.011438879 -0.020807208 -0.013132127 -0.021405984
000110 cb 45 c2 3b 76 14 0f 3d 3d f9 4d bc ca 80 ec 3c
       0.00592873 0.034931622 -0.01257163 0.028870005
000120 26 a8 f7 bb 9c 67 df 3c 94 e4 96 bc aa f0 b3 3c
       -0.0075578867 0.027271084 -0.018419541 0.021965344
000130 b4 9a 00 bd ce e4 14 3c e7 58 3c bc fe 4e a8 bc
       -0.031397536 0.009087754 -0.011495805 -0.020545479
000140 bd e6 66 bc 43 2c ac 3c 6c 7d bd bc b2 bf f1 3c
       -0.014093098 0.0210172 -0.023131095 0.029510353
000150 b0 14 f3 bb 58 ef 87 bc 33 b6 ef 3c 59 01 05 bd
       -0.0074182376 -0.01659362 0.029261684 -0.03247199
000160 91 31 09 3d a7 b9 b1 3b 40 72 5e bc 39 b2 99 bb
       0.033494536 0.005423743 -0.013577044 -0.0046904352
000170 3f e5 0f 3d 51 b9 a1 3c 2b 85 85 bc 6d 62 c9 3b
       0.035130735 0.019741686 -0.016298851 0.0061457665
000180 1d b7 73 bc ef 47 46 3c ad 0a b4 bb 86 33 e4 bc
       -0.014875201 0.012102111 -0.0054944367 -0.0278566
000190 8a ca b9 3b ad c9 ac bc 63 c2 e3 3c cf 4e dd bc
       0.0056698965 -0.02109226 0.027802652 -0.027015118
0001a0 a7 55 05 bd 6e 1a 0e 3d 5a 52 7a 3c 86 dd d4 3c
       -0.032552388 0.034693174 0.015278423 0.025984537
0001b0 48 fd 5a bc 23 c9 0e 3c 89 4f f6 bc 37 95 b1 3c
       -0.013366051 0.008714947 -0.030067222 0.021677596
0001c0 78 ba f3 bc 3b e9 5d bc b0 e2 5b ba 99 e1 80 bc
       -0.029752001 -0.013544376 -0.0008387966 -0.015732573
0001d0 fa a2 99 bc 01 a6 1b 3d a9 cc f9 bc c9 b2 89 3c
       -0.018754471 0.03800011 -0.030493097 0.016808884
0001e0 57 43 a4 3c 97 e7 3c bc 38 ef 23 3c 62 be b0 bc
       0.020051641 -0.011529825 0.010005765 -0.021575157
0001f0 87 83 9d bc 86 b5 1f bd a7 ad 66 ba 6e 45 d4 3c
       -0.019227756 -0.038991474 -0.000879968 0.025912013

conv_layers.11.weight f4 [128]
000000 7b a3 7e 3f 06 e9 7e 3f 5e a8 7f 3f 50 5c 7d 3f
       0.994682 0.99574316 0.9986628 0.9896898
000010 fb 8d 7e 3f 13 38 7e 3f df 57 7d 3f 44 ea 81 3f
       0.99435395 0.9930431 0.98962206 1.0149617
000020 aa 22 7d 3f 1b 16 7d 3f b0 96 7e 3f 0d a9 83 3f
       0.9888102 0.98861855 0.9944868 1.0285965
000030 dc 92 80 3f 3b d0 7e 3f e2 c7 81 3f 49 ef 7e 3f
       1.0044818 0.99536484 1.0139124 0.9958387
000040 95 b7 7c 3f 44 44 7c 3f c4 cf 7d 3f 6f ab 7e 3f
       0.98717624 0.98541665 0.9914515 0.99480337
000050 22 7f 7e 3f 58 94 7d 3f e1 b5 7b 3f 34 8a 7e 3f
       0.9941274 0.9905448 0.983244 0.9942963
000060 9b 91 7d 3f dc 0b 82 3f 08 0f 7f 3f 52 13 7f 3f
       0.990503 1.0159869 0.9963231 0.99638855
000070 c1 6c 80 3f d8 89 7f 3f 2b 0b 7e 3f 33 2d 7f 3f
       1.0033189 0.9981971 0.9923579 0.99678344
000080 fb 79 80 3f 9e 76 80 3f 38 9d 7c 3f aa 3c 7f 3f
       1.0037225 1.0036199 0.98677397 0.9970194
000090 fe 00 80 3f 70 bd 80 3f 27 0e 7f 3f cf 9f 80 3f
       1.0000303 1.0057812 0.9963097 1.004877
0000a0 89 16 83 3f 7c b8 7b 3f df 82 80 3f d5 69 80 3f
       1.0241252 0.98328376 1.0039939 1.0032297
0000b0 14 d3 7d 3f 82 57 83 3f 99 0c 7e 3f cc 1c 7e 3f
       0.99150205 1.026108 0.9923797 0.9926269
0000c0 cd 62 7f 3f 7c d2 7c 3f 81 1a 80 3f 65 36 80 3f
       0.99760133 0.98758674 1.0008088 1.00166
0000d0 78 c4 7d 3f f6 21 81 3f b3 8f 7d 3f 1c c2 7d 3f
       0.9912791 1.0088489 0.9904739 0.9912431
0000e0 b9 a9 7d 3f fe 99 7c 3f 5f 43 80 3f 12 9f 7d 3f
       0.990871 0.98672473 1.002056 0.9907085
0000f0 2d d0 80 3f 4c e7 7d 3f b2 af 81 3f f1 1c 7e 3f
       1.006353 0.99181056 1.0131743 0.9926291
000100 9a 5a 7e 3f 02 ef 7f 3f 92 6c 81 3f 17 19 81 3f
       0.99356997 0.9997407 1.0111258 1.0085782
000110 09 53 81 3f f6 2e 7d 3f 62 0c 80 3f a9 8c 7e 3f
       1.0103465 0.9889978 1.0003779 0.9943338
000120 0d 00 80 3f cb 78 7e 3f 17 94 82 3f dd ed 81 3f
       1.0000015 0.99403065 1.0201443 1.0150715
000130 2d a7 7e 3f d4 b2 7f 3f 61 27 81 3f 7c 57 7f 3f
       0.9947384 0.99882245 1.0090142 0.99742866
000140 c1 21 7e 3f 42 11 81 3f 4c 29 80 3f 1a 06 80 3f
       0.99270254 1.0083392 1.0012603 1.0001862
000150 95 3a 81 3f 10 be 7e 3f 3b 77 80 3f 9b fe 7d 3f
       1.0096003 0.9950876 1.0036386 0.9921662
000160 c6 76 7c 3f 91 00 81 3f 0a 73 7f 3f 52 42 7f 3f
       0.98618734 1.0078298 0.9978491 0.9971057
000170 19 b3 7f 3f 42 9a 80 3f 11 c4 80 3f 68 cb 80 3f
       0.99882656 1.0047076 1.0059835 1.0062075
000180 bd 7d 7d 3f 08 e7 7d 3f 5b 1d 7d 3f ee 2c 7d 3f
       0.99019986 0.9918065 0.9887292 0.9889668
000190 3d 88 7d 3f 9f a8 7d 3f 29 88 7e 3f 43 89 7f 3f
       0.9903601 0.9908542 0.99426514 0.9981882
0001a0 7d 17 81 3f d5 ea 80 3f 11 9d 80 3f fe c0 7c 3f
       1.0085293 1.0071665 1.0047933 0.9873198
0001b0 4d a0 7c 3f da 69 7c 3f ce f8 7b 3f dd ea 7d 3f
       0.986821 0.98599017 0.9842652 0.991865
0001c0 ef 82 7d 3f df a7 80 3f 4b 71 7c 3f bf c7 81 3f
       0.99027914 1.005123 0.9861037 1.0139083
0001d0 91 01 80 3f 46 96 7c 3f 76 93 80 3f e8 00 7e 3f
       1.0000478 0.986668 1.0045002 0.9922013
0001e0 8e 46 7d 3f 6a 36 81 3f 42 69 7e 3f 94 8e 7d 3f
       0.9893578 1.0094731 0.9937936 0.9904568
0001f0 7d bb 7d 3f 9f d1 7d 3f 10 99 7c 3f ba b1 7f 3f
       0.9911421 0.9914798 0.98671055 0.99880564

conv_layers.11.bias f4 [128]
000000 05 53 d6 bb d7 f2 34 bc 69 6f 09 bc 52 3c 3b bc
       -0.0065406584 -0.011044226 -0.008388379 -0.011427956
000010 75 d0 43 bb 20 e8 fc bb f5 51 01 bc a8 5e 2c bc
       -0.0029878889 -0.007718101 -0.007893075 -0.010520615
000020 0b d8 1c bc 22 82 19 bc 07 d3 26 bb cc 2b 35 bb
       -0.009572993 -0.009369405 -0.0025455372 -0.0027644513
000030 3a 77 11 bb 5d 4a 38 bc 1e 41 4b bb 5c 59 14 bc
       -0.0022196309 -0.011248198 -0.0031014155 -0.009054508
000040 2b a0 d9 bb 3e f8 3a bc b4 65 24 bc a0 67 40 bc
       -0.006641408 -0.011411725 -0.010034014 -0.011743456
000050 46 c1 8b bc 62 75 2e bc 34 2a 2f bc be 65 93 bb
       -0.017059933 -0.010648103 -0.010691214 -0.0044982126
000060 f4 0c 47 bc 8a 3a ff 3a b2 94 55 bc 5a 16 cf bb
       -0.012149084 0.0019472402 -0.01303594 -0.006319803
000070 0d 3a c4 bb 1b 3a de ba c0 df 11 bc d0 ce cf bb
       -0.0059883655 -0.0016954573 -0.008903444 -0.0063417926
000080 e9 75 02 bc 22 2a 88 bb 06 34 4b bc 75 a2 28 bc
       -0.007962682 -0.0041554132 -0.01240254 -0.010292639
000090 f4 47 07 bc 2d f3 3e bc 46 19 d4 bb 26 e3 51 bc
       -0.008256901 -0.011654657 -0.0064727394 -0.012810504
0000a0 9b 5a c6 bb 1b 90 67 bc f6 81 ef ba 92 c9 a4 bb
       -0.0060532815 -0.0141334785 -0.0018272984 -0.005028912
0000b0 89 54 37 bc 80 f4 1b ba 00 30 21 bc b9 50 c8 bb
       -0.011189588 -0.0005949214 -0.009838104 -0.0061131385
0000c0 49 0b 24 bc a3 0a 97 bb 6c 6c df bb 00 c2 08 bb
       -0.010012456 -0.0046094223 -0.006818345 -0.0020867586
0000d0 ea 57 cf bb 1d b9 c2 b9 2f 8c 28 bc 57 a0 28 bc
       -0.006327619 -0.00037140484 -0.010287329 -0.010292134
0000e0 41 25 38 bc ee 65 29 bc eb b7 24 bc 0d 3f 16 bc
       -0.011239351 -0.010339243 -0.010053615 -0.009170306
0000f0 80 b4 cb bb ff c8 9e bb 97 10 a5 bb 4d f7 38 bc
       -0.0062165856 -0.004845738 -0.005037378 -0.01128943
000100 4a b6 ee bb 2c 7c f6 bb d7 f9 a7 bb 52 72 89 bb
       -0.007284914 -0.0075221267 -0.005126219 -0.0041945362
000110 d1 1a ca bb 11 e0 1c bc e7 d3 5c bc 62 c2 81 bc
       -0.0061677475 -0.009574906 -0.013478256 -0.01583976
000120 1e c7 0a bc c6 59 42 bc ac 2a 45 39 b9 e4 22 bc
       -0.008470325 -0.011862224 0.0001880328 -0.009942227
000130 e8 f7 a5 bb 76 de 06 bc b7 07 a5 bb fe 0d aa bb
       -0.005064953 -0.00823175 -0.00503632 -0.0051896563
000140 ab 8d 33 bc 46 b7 58 bb 3f de 94 bb ed cb e8 bb
       -0.010959069 -0.0033068224 -0.0045430954 -0.007104388
000150 5d e5 2e bc ce 02 ba bb 26 24 b2 ba 98 4d 1e bc
       -0.010674802 -0.005676604 -0.0013591095 -0.0096620545
000160 bd 49 39 bc 8b e5 dd bb e9 48 58 bc 88 cc d6 bb
       -0.0113090845 -0.0067717484 -0.013200977 -0.0065551437
000170 46 9f 2e bc 6c f3 82 ba 89 b1 f2 bb 53 3d 10 bc
       -0.010658091 -0.0009990758 -0.0074064177 -0.008803683
000180 ef ad 2f bc 83 74 25 bc 18 93 01 ba 96 24 61 bc
       -0.010722621 -0.010098579 -0.0004942878 -0.013741633
000190 dd 7f 4a bc 60 a2 d0 bb ca 72 b7 bb fc 4a f1 bb
       -0.012359587 -0.006367013 -0.0055984007 -0.007363675
0001a0 26 a6 2c bb 81 cb 01 bc fd c2 96 bb 58 7a c2 bb
       -0.002634415 -0.007922054 -0.004600881 -0.0059349947
0001b0 24 4b 01 bc 27 79 bd bb 16 dd 40 bc 13 b4 3c bc
       -0.00789145 -0.0057822648 -0.011771461 -0.011517542
0001c0 49 c4 c8 bb a6 c8 28 bc 15 de 32 bc fb 06 ad bb
       -0.0061269146 -0.010301745 -0.010917206 -0.005280373
0001d0 ea f2 0f bc ce f7 18 bc 41 c9 c5 bb 0f fc 2d bc
       -0.008785943 -0.009336425 -0.006035954 -0.0106191775
0001e0 12 69 f2 bb f1 9e 8b bb e2 8f 21 bc 2a 65 1c bc
       -0.0073977793 -0.0042608907 -0.0098609645 -0.009545604
0001f0 54 56 b3 bb 28 31 42 bc 60 17 66 bc bd ae cb bb
       -0.0054729376 -0.01185254 -0.014043659 -0.006215899

conv_layers.11.running_mean f4 [128]
000000 75 9c 81 bf d0 f2 f9 be 89 3b 39 3e 0d f4 97 3f
       -1.0125872 -0.48818064 0.18089117 1.1871353
000010 43 6f 72 3f 92 15 0b 3f a3 03 0a 3f 00 95 ea 3e
       0.9470102 0.5432979 0.539118 0.45816803
000020 04 85 91 be 59 ab 2f bf cb 52 dd bc 9a 32 eb 3d
       -0.28421795 -0.6862083 -0.027017018 0.11484261
000030 99 5a d5 be 19 d4 48 3e f9 40 ca be c6 ce 4e 3c
       -0.41670683 0.19612159 -0.39502695 0.012622541
000040 b1 2e 2b bf 83 87 61 bf 1b ef 41 3f b2 3c d6 3e
       -0.6686812 -0.880974 0.7575547 0.41843182
000050 e2 65 19 3e 31 c8 27 3f f6 9b f8 be b1 24 9f 3e
       0.14980271 0.6553984 -0.4855649 0.3108268
000060 5f 88 09 3f ee 15 bd be 42 ef 63 be 31 15 93 3d
       0.5372371 -0.36930794 -0.22259238 0.07181776
000070 50 00 a5 bf e3 3d 7c 3d 4a 63 23 be f7 b3 a2 bf
       -1.289072 0.061582457 -0.15955845 -1.2711171
000080 c2 72 29 3d 26 a9 02 bf 3a 03 6c 3e 7f b4 8a be
       0.041369207 -0.5103935 0.23048106 -0.27090833
000090 59 ed 3e bf 1d a0 16 bf a7 f5 b9 be 94 58 ef bd
       -0.74580914 -0.58838063 -0.3632023 -0.11686817
0000a0 0d 71 f6 3d c3 b6 93 3d 3b 06 de 3e ae 94 07 bf
       0.120332815 0.072125934 0.43364128 -0.5296124
0000b0 3a 4d 8a bf 06 0b 69 3e e6 02 5d 3e 8a e9 a4 be
       -1.0804818 0.22758111 0.21583137 -0.32209426
0000c0 86 48 58 be 47 77 39 3f 60 da db 3d 14 a4 0b 3f
       -0.21121415 0.7244763 0.10735011 0.5454724
0000d0 a7 5d 2c 3f 12 16 06 bd 30 ce 5e 3d 41 d9 c6 be
       0.673304 -0.03273589 0.054395854 -0.38837627
0000e0 23 4f ea 3e bd f9 81 bf cc 1a a5 be b1 8c c2 3e
       0.45763502 -1.0154339 -0.32247007 0.37997964
0000f0 03 e2 b6 3e 18 02 c5 3e f4 30 87 bf 1f d8 c6 3e
       0.35719308 0.3847816 -1.0561814 0.38836762
000100 56 27 d4 3e b3 9e 0b bf 2c 20 39 be e7 ad bb be
       0.4143626 -0.5453903 -0.18078679 -0.36656114
000110 9d 21 36 bf bb c2 9b 3e 83 55 a4 bf cf 51 80 3f
       -0.7114504 0.30422005 -1.2838596 1.0024966
000120 91 6b 5e be c1 37 1c bd 74 1a 11 bf 06 30 d4 be
       -0.21720721 -0.03813911 -0.5668099 -0.4144289
000130 c3 12 07 bf df 94 9f bf 4e f5 b0 be 37 a1 81 be
       -0.52763003 -1.2467307 -0.34562153 -0.2531831
000140 a8 37 d6 3d 13 1d c1 bf 9e c5 0c 3f 59 98 4e bf
       0.10459834 -1.5086998 0.5498904 -0.80701214
000150 f4 58 51 bf 11 5a 53 bf ac ed 34 be ba 4c 49 3e
       -0.81776357 -0.82559305 -0.1766879 0.19658175
000160 4c 35 07 bf 8e a4 15 3e b6 c7 db bd fe 94 1a bf
       -0.528157 0.14613554 -0.10731451 -0.60383594
000170 60 bd 04 bf ac 35 da 3e 6f 3d d8 bd 7d 39 47 bf
       -0.51851463 0.42619073 -0.105585925 -0.77822095
000180 1c 7e 0b 3f e1 b0 52 bf 9d 35 1b 3f ed 9a 86 be
       0.544893 -0.82301146 0.6062868 -0.26290074
000190 3b 4d 4d 3e 78 34 06 3d 23 3b 6b be fb bf de be
       0.20048992 0.03276488 -0.22971778 -0.43505844
0001a0 3c 6d d6 3d 69 f0 58 bf fd d0 17 bd aa e3 b0 3e
       0.104700536 -0.84741837 -0.03706454 0.34548694
0001b0 f3 dd fb be 98 90 02 bf 6a 51 82 3e 12 e6 09 bf
       -0.4919277 -0.5100188 0.2545274 -0.53866684
0001c0 79 5e 10 3e a0 bc 24 bf 1c f1 79 3e 41 f5 0b bf
       0.14098538 -0.6435032 0.24408382 -0.546711
0001d0 4c 41 e0 3c ba b6 26 be 80 e1 4e 3e cf 26 d6 be
       0.027374886 -0.16280642 0.20203209 -0.41826484
0001e0 31 b8 a0 3e 37 b6 5e bc d5 ac 91 3d 98 73 c4 be
       0.31390527 -0.013593248 0.07113043 -0.3836944
0001f0 0f 15 8b bd 2d 82 a6 be 90 6f aa 3e 12 18 6e 3e
       -0.06791126 -0.3252119 0.3328824 0.2325137

conv_layers.11.running_var f4 [128]
000000 9a ad c8 3e a1 8f bb 3e 53 d7 99 3e ed 18 3e 3f
       0.39194947 0.36633018 0.30047092 0.74256784
000010 52 5e cc 3e 5a 33 d7 3e de 00 7b 3e 4d 38 a1 3e
       0.3991571 0.42031366 0.2451205 0.31488267
000020 7f 94 e4 3e d0 53 be 3e 04 af 84 3e 7d 5f ab 3e
       0.44644544 0.3717332 0.25914776 0.3347129
000030 f4 70 b0 3e fc 67 a9 3e 37 e1 a7 3e a7 12 b6 3e
       0.34461176 0.33087146 0.32789013 0.35561106
000040 62 58 d4 3e d6 1a b1 3e aa 60 d1 3e ce d1 ab 3e
       0.4147368 0.34590787 0.4089406 0.33558506
000050 b3 72 9c 3e 79 16 cf 3e 6d 00 14 3f dd 43 ad 3e
       0.3055626 0.40446833 0.5781315 0.33840838
000060 57 e1 f0 3e 32 7f ab 3e a3 81 91 3e 78 96 88 3e
       0.4704692 0.3349548 0.28419217 0.266773
000070 91 8b 24 3f bc ef 6c 3e 05 52 be 3e 8a e9 28 3f
       0.6427546 0.23138326 0.3717195 0.6598135
000080 44 2f aa 3e cb 23 9f 3e ca 82 a3 3e 88 49 7d 3e
       0.33239186 0.31081995 0.31935722 0.24735081
000090 74 63 ed 3e ae c2 25 3f 8f 41 a9 3e be 0c b4 3e
       0.4636494 0.6475018 0.3305783 0.35165972
0000a0 d4 6a b3 3e fd 5d a4 3e b9 d6 9c 3e 07 d6 b7 3e
       0.3504244 0.32102957 0.3063257 0.35905477
0000b0 4e 62 2a 3f c2 6e ae 3e 26 09 90 3e 83 c1 f1 3e
       0.6655625 0.34068877 0.2813198 0.4721795
0000c0 74 30 aa 3e 6b af ee 3e 2d d1 87 3e ae a8 99 3e
       0.33240092 0.46618208 0.26526776 0.30011505
0000d0 da 0e 23 3f f7 d5 8d 3e 2c e6 09 3f 3a e5 d8 3e
       0.63694537 0.27702305 0.5386684 0.42362386
0000e0 1c 98 89 3e 9c b0 01 3f f9 26 9a 3e 86 de ab 3e
       0.26873863 0.5066011 0.3010786 0.3356821
0000f0 f2 a6 87 3e d9 2a c6 3e 8e ad e5 3e 04 97 dc 3e
       0.26494557 0.38704565 0.44858974 0.43083966
000100 d1 37 23 3f 4b 09 8c 3e bc e3 8b 3e c7 8b a7 3e
       0.63757044 0.2735084 0.27322185 0.3272383
000110 7a be cf 3e 1e 84 c9 3e 6d cb 14 3f 9b f3 51 3f
       0.4057501 0.3935861 0.58122903 0.8201234
000120 5e 7a b7 3e 69 a7 b9 3e 55 7d af 3e 1f a2 03 3f
       0.35835546 0.36260536 0.34275308 0.5141925
000130 0f ae da 3e 84 31 24 3f 26 dc b8 3e 35 0e db 3e
       0.4271092 0.64138055 0.3610546 0.42784277
000140 d5 1c 74 3e 2c b9 45 3f 6d be 9f 3e 24 db c7 3e
       0.23839124 0.77235675 0.3119997 0.3903438
000150 64 24 d6 3e a2 76 12 3f 70 7b b6 3e c9 3f 96 3e
       0.4182464 0.5721227 0.3564105 0.2934554
000160 ce 26 0b 3f 6f b9 9f 3e 67 23 91 3e 49 ea 11 3f
       0.54356086 0.31196162 0.28347322 0.56998116
000170 15 78 3d 3f b8 7e 87 3e 52 ed 87 3e dc d0 f7 3e
       0.74011356 0.26463866 0.2654825 0.48401535
000180 4f 79 a5 3e 06 24 36 3f 7d c5 b0 3e 01 09 9f 3e
       0.32319114 0.7114872 0.34525672 0.31061557
000190 e1 b4 87 3e 04 79 71 3e c2 c0 16 3f 43 64 b6 3e
       0.26505187 0.2358132 0.58887875 0.3562337
0001a0 a3 7f 92 3e a7 85 10 3f 6f 48 7d 3e 65 6b d6 3e
       0.28613004 0.5645394 0.24734662 0.4187881
0001b0 42 1d 82 3e 26 76 be 3e aa 3a 57 3e cb 6a 94 3e
       0.25412947 0.37199515 0.21018472 0.28987727
0001c0 b6 a3 e7 3e 37 95 1f 3f fb a0 ef 3e bc 52 f3 3e
       0.4524209 0.6233706 0.46802506 0.4752406
0001d0 07 57 9e 3e 19 0b 76 3e eb 12 98 3e fa 25 9e 3e
       0.30925772 0.24027671 0.29701933 0.3088835
0001e0 5e 3c 26 3f e0 5f a0 3e b7 9f c8 3e 6b 02 b8 3e
       0.64935863 0.31323147 0.39184353 0.35939345
0001f0 a0 46 87 3e d5 9e bd 3e 4b f6 cd 3e a2 9d 96 3e
       0.2642107 0.37035242 0.4022697 0.2941714
